…
    >>> np.nansum([1, np.nan, np.inf])
    inf
    >>> np.nansum([1, np.nan, np.NINF])
    -inf
    >>> np.nansum([1, np.nan, np.inf, np.NINF])
    nan
    #+END_EXAMPLE
    
*** ndenumerate()
    :PROPERTIES:
    :CUSTOM_ID: d2-ndenumerate
    :END:
    
    =numpy=.ndenumerate(...)
    
    #+BEGIN_EXAMPLE
    Multidimensional index iterator.
    
    Return an iterator yielding pairs of array coordinates and values.
    
    Parameters
    ----------
    a : ndarray
      Input array.
    
    Examples
    --------
    >>> a = np.array([[1,2],[3,4]])
    >>> for index, x in np.ndenumerate(a):
    ...     print index, x
    (0, 0) 1
    (0, 1) 2
    (1, 0) 3
    (1, 1) 4
    #+END_EXAMPLE
    
    #+BEGIN_EXAMPLE
    >>> from numpy import *
    >>> a = arange(9).reshape(3,3) + 10
    >>> a
    array([[10, 11, 12],
    [13, 14, 15],
    [16, 17, 18]])
    >>> b = ndenumerate(a)
    >>> for position,value in b: print position,value                  # position is the N-dimensional index
    ...
    (0, 0) 10
    (0, 1) 11
    (0, 2) 12
    (1, 0) 13
    (1, 1) 14
    (1, 2) 15
    (2, 0) 16
    (2, 1) 17
    (2, 2) 18
    #+END_EXAMPLE
    
    See also: [[#d2-broadcast][broadcast]], [[#d2-ndindex][ndindex]]
    
*** ndim() or .ndim
    :PROPERTIES:
    :CUSTOM_ID: d2-ndim
    :END:
    
    =numpy=.ndim(a)
    
    #+BEGIN_EXAMPLE
    Return the number of dimensions of an array.
    
    Parameters
    ----------
    a : array_like
        Input array.  If it is not already an ndarray, a conversion is
        attempted.
…
